models/ffn_baseline.pth (torch, 943697 bytes, 6 tensors)

net.0.weight f4 [256, 784]
0	0xbb620c30	-0.0034492128
1	0x3ca2e26b	0.019883355
2	0x3c1d43e7	0.009598709
3	0x3d1e3410	0.03862387
4	0x3be9dc9c	0.0071368944
5	0x3ca1d8e9	0.019756751
6	0xb9ff534c	-0.0004869945
7	0x3b575bf8	0.0032861214
8	0xbcc3141c	-0.0238133
9	0xbc5aabd2	-0.013346629
10	0xbb90b3a0	-0.004415944
11	0x3c3e88ca	0.011629293
12	0x3cc817ca	0.024425406
13	0x3d01fd36	0.03173562
14	0xbc63d5a0	-0.013905913
15	0xbbabe62a	-0.0052459436
16	0x3cbeb232	0.02327833
17	0x3d23b059	0.0399631
18	0x3b41be8e	0.0029563042
19	0x3d17ae9c	0.037031755
20	0x3b951663	0.004549788
21	0x3c66c65d	0.014085379
22	0x3d2eac58	0.04264483
23	0xbcbafb15	-0.022824803
24	0xbc4782ed	-0.012177211
25	0x3aa5c4c3	0.001264714
26	0xbb6cebc4	-0.003615127
27	0x3d289b1b	0.041163545
28	0xbc526b41	-0.012842954
29	0xbbc90118	-0.0061341636
30	0xbc6ff251	-0.014645175
31	0xbcbd94f5	-0.023142317
32	0xbc2cb6a1	-0.010541589
33	0x3d27f63a	0.041006304
34	0x3cde3bf5	0.0271282
35	0x3cedc5e3	0.029025024
36	0x3c4a135c	0.012333717
37	0xbbf41031	-0.007448219
38	0x3c850259	0.016236471
39	0xbcc4dee4	-0.024032064
40	0xbc7dd3b8	-0.015492372
41	0xbc096b1a	-0.008387351
42	0x3cfd69b8	0.0309342
43	0x3d0e611e	0.034760587
44	0xbbacf019	-0.0052776453
45	0x3c14a782	0.00907314
46	0x3d074cb8	0.03303215
47	0x3d3a3c3c	0.0454676
48	0x3cc5316f	0.024071423
49	0x3c76e7da	0.015069926
50	0x3d0c4974	0.034249738
51	0xbc2facdd	-0.010722366
52	0x3c8af2c9	0.016961472
53	0xbc8e6731	-0.01738319
54	0xbc6cb246	-0.014446801
55	0xbc056aa3	-0.0081431
56	0x3cd8cf4b	0.026466032
57	0x3cca16f7	0.024669154
58	0xbc31c0a1	-0.010849149
59	0x3cacd881	0.02109933
60	0x3cf5137b	0.029916516
61	0x3bbdedf1	0.005796187
62	0x3c53ec49	0.012934753
63	0x3ca4ec9a	0.020132352
64	0x3cecebe3	0.028921073
65	0x3cbfa232	0.02339277
66	0xbc10ad08	-0.008830316
67	0xbb36d383	-0.0027897067
68	0x3c98a41d	0.018632943
69	0x3d8e002f	0.06933629
70	0x3d906eab	0.07052358
71	0x3dd09d1f	0.101862185
72	0x3d557d55	0.05212148
73	0xbb421ba7	-0.0029618533
74	0x3d3a000f	0.045410212
75	0x3cea7ab9	0.028622972
76	0xbc162f9e	-0.009166626
77	0x3d1c4d32	0.038159557
78	0x3d19c004	0.037536636
79	0xbcbb1bae	-0.022840347
80	0x3cc2fbb1	0.023801656
81	0x3c109070	0.008823499
82	0x3b912268	0.0044291504
83	0xbbc5fd46	-0.0060421554
84	0x3cc4f070	0.02404043
85	0xbc31b949	-0.010847398
86	0x3cbffb82	0.023435358
87	0x3ce89b75	0.02839444
88	0x3d1321d7	0.035920944
89	0x3cf775df	0.030207573
90	0xbc7de119	-0.015495562
91	0x3c38b772	0.0112742055
92	0x3d433c17	0.047664728
93	0x3bff58f3	0.007792586
94	0x3d4556b3	0.048178386
95	0xbd19dbf4	-0.03756328
96	0x3dbb1009	0.09133918
97	0x3dc50778	0.09620565
98	0x3d5c28c4	0.053749815
99	0x3da544b0	0.08069742
100	0xbccc4abe	-0.024937984
101	0xbd4b3797	-0.04961356
102	0xbdd9a637	-0.10627406
103	0xbdab1b85	-0.08354858
104	0x3c45d8aa	0.0120755825
105	0xbd7aa823	-0.061195504
106	0xbd96d16e	-0.07364164
107	0xbba2276a	-0.004948546
108	0xbb277c16	-0.0025556139
109	0x3db7c673	0.08973398
110	0x3d449fa0	0.048003793
111	0xbca24a9b	-0.019810965
112	0x3ab9cecd	0.0014176011
113	0x3c434d89	0.011920341
114	0x3c7fac2a	0.015605012
115	0x3ca19f79	0.019729363
116	0x3cc99fe2	0.02461237
117	0x3cc66066	0.024215888
118	0x3d405bc2	0.046962507
119	0x3de4746e	0.1115502
120	0x3d886ec7	0.06661754
121	0x3d98c858	0.074600875
122	0x3dc2354c	0.09482822
123	0x3dac4df7	0.08413308
124	0x3d9e8afe	0.077413544
125	0xbc645b37	-0.013937763
126	0x3d12c7ec	0.03583519
127	0x3de33f5c	0.11096069
128	0xbcb83b0f	-0.022489099
129	0xbdb3fe61	-0.08788753
130	0xbc868004	-0.016418464
131	0xbc9e816f	-0.019348828
132	0x3b51d935	0.0032020335
133	0x3b4a8011	0.0030899087
134	0xbc7b2617	-0.015328906
135	0x3da5a421	0.08087946
136	0x3e190960	0.14944983
137	0x3de1659c	0.110057086
138	0x3d53efa1	0.0517422
139	0x3bfd14a2	0.007723407
140	0xbcb264df	-0.021776615
141	0xbbd916be	-0.0066250255
142	0x3d0d82b2	0.03454847
143	0x3c91ea83	0.01781202
144	0x3c6ce490	0.01445879
145	0x3d974127	0.07385474
146	0x3da41d2d	0.08013377
147	0x3d16cd14	0.03681667
148	0x3d375644	0.044760004
149	0x3d836cb5	0.064172186
150	0x3de72509	0.11286361
151	0x3d49867e	0.049200527
152	0x3d331d7b	0.043729287
153	0xbbd21c83	-0.0064120903
154	0x3d0b94ba	0.034077384
155	0x3c954e49	0.018225806
156	0x3d480a1e	0.048837774
157	0x3cfc03d1	0.030763539
158	0xbc848b0f	-0.01617959
159	0xbc4c4007	-0.012466437
160	0x3dacd5d4	0.08439222
161	0x3c9c9db6	0.019118171
162	0x3cea3e7b	0.028594246
163	0x3dd87dc1	0.10570861
164	0x3dc33d94	0.095332295
165	0x3dac8ee3	0.08425691
166	0x3d804c63	0.062645696
167	0xbb4a7eec	-0.0030898405
168	0x3d2e4fba	0.042556502
169	0x3cbe9802	0.023265842
170	0xbcc07ab8	-0.023496017
171	0x3d135502	0.03596974
172	0x3ca30e33	0.019904232
173	0x39937ca0	0.00028130878
174	0x3d583f2d	0.052794624
175	0xbd1fd89a	-0.039024927
176	0xbb201bce	-0.0024430635
177	0x3d2d0f74	0.042251065
178	0x3d7cbcdd	0.06170355
179	0x3c228c74	0.009921182
180	0x3ccfbc6e	0.025358405
181	0x3c263bf4	0.01014613
182	0xbc1be670	-0.00951539
183	0x3b1490e5	0.0022669372
184	0x3ca38045	0.019958625
185	0x3d1a8ba9	0.037730847
186	0x3cd96bd0	0.026540667
187	0x3c5a3055	0.013317187
188	0x3b6da294	0.0036260234
189	0xbd46d337	-0.048541274
190	0xbc9cc051	-0.019134672
191	0x3d9a2e9b	0.075284205
192	0x3e0b86de	0.13625666
193	0x3e045dda	0.12926427
194	0x3d1ea2d2	0.038729496
195	0x3c598605	0.013276582
196	0x3c41786c	0.011808496
197	0x3d0d5bbc	0.034511313
198	0xbd0137c3	-0.03154732
199	0xbcff2422	-0.03114516
200	0xbd250540	-0.04028821
201	0x3c2b8483	0.010468605
202	0xbd21a2ed	-0.03946202
203	0xbd194287	-0.03741696
204	0xbc98b04d	-0.018638754
205	0x3a804bad	0.0009788178
206	0x3d40870a	0.047003783
207	0x3d006de2	0.031354792
208	0x3d489e0e	0.048978858
209	0x3bd379f8	0.006453749
210	0x3ceca0ac	0.028885208
211	0xbba9000d	-0.0051574768
212	0x3ba52266	0.005039501
213	0x3be56fb9	0.007001844
214	0x3c11f148	0.008907624
215	0xbc4dbe09	-0.012557515
216	0x3d231b13	0.03982074
217	0xbca7d2e9	-0.020486312
218	0xbc991e25	-0.018691132
219	0x3d099239	0.033586714
220	0x3d2efb88	0.042720348
221	0x3de43fb4	0.11144963
222	0x3c825225	0.01590831
223	0x3b26112a	0.002533982
224	0xbadbdcfc	-0.0016774232
225	0x3bba5fc4	0.0056876857
226	0xbcebd9ff	-0.028790472
227	0xbc08a70b	-0.008340607
228	0xbd8430eb	-0.06454643
229	0x3c37e021	0.01122287
230	0x3a762e65	0.00093910686
231	0xbc8914b5	-0.016733507
232	0x3d0ce683	0.03439952
233	0x3bdbf146	0.0067121116
234	0x3dad9201	0.08475114
235	0x3d926be1	0.071494825
236	0x3d99bceb	0.07506736
237	0x3d7ade1b	0.061246973
238	0xbc1a0f07	-0.009402997
239	0xbd0af4d8	-0.033924907
240	0xbcede8de	-0.029041704
241	0xbd26e436	-0.040744983
242	0x3d988da6	0.07448892
243	0x3c9b89e1	0.018986644
244	0xbb607f62	-0.0034255614
245	0xbd4fd48f	-0.05073982
246	0xbd24305d	-0.040085185
247	0x3d17ea3b	0.037088614
248	0x3dbfacb2	0.09359111
249	0x3d7c204a	0.06155423
250	0x3c56d1b8	0.013111524
251	0x3a0744da	0.0005160101
252	0xbccdbec9	-0.025115388
253	0x3ce0c1e0	0.027436197
254	0xbd0f897d	-0.03504323
255	0xbd507a3c	-0.05089782

net.0.bias f4 [256]
0	0xbcddfc66	-0.027097892
1	0x3bfc8e11	0.0077073653
2	0xbc9729d5	-0.018452564
3	0xbb2afd96	-0.002609109
4	0xbd32eb59	-0.043681476
5	0xbd2bc79c	-0.04193841
6	0xbbf8f059	-0.007597011
7	0x3d06600a	0.032806434
8	0x3c0769b9	0.008264952
9	0xbd0fbd50	-0.03509265
10	0xbb945c19	-0.0045275805
11	0xbd1a0df2	-0.037610956
12	0xbb0f1f4e	-0.0021838727
13	0xbb60cf67	-0.003430331
14	0x3bc6841f	0.0060582305
15	0xbd28b94a	-0.04119233
16	0xbcbee14c	-0.02330079
17	0xbceebe52	-0.029143486
18	0xbd21206f	-0.03933757
19	0xbc0adaf5	-0.008475055
20	0xbc96d56c	-0.018412314
21	0xbccebe43	-0.025237208
22	0xbca38c7a	-0.019964445
23	0x3d00c63c	0.03143905
24	0x3c93e2a7	0.018052412
25	0x3c093e3e	0.008376656
26	0xbd45b129	-0.048264656
27	0x3c4b5fba	0.01241296
28	0xbc3a02e5	-0.011353229
29	0xbd06d435	-0.03291722
30	0x3cf8aecc	0.030356787
31	0x3c5d7b9f	0.013518243
32	0xbcffb15a	-0.031212498
33	0xbb43eb04	-0.002989472
34	0xbba774e3	-0.0051103695
35	0xbcf15b66	-0.029462527
36	0xbcfee658	-0.031115696
37	0xbb20abe9	-0.002451653
38	0xbd700588	-0.058599025
39	0xbd1bbc3b	-0.038021307
40	0xbd34ac9e	-0.044109933
41	0xbb24dde5	-0.0025156674
42	0x3c151365	0.009098862
43	0xbd6a5836	-0.05721303
44	0xbd2f54b6	-0.042805396
45	0xbd1d2caf	-0.03837269
46	0xbc8ad26b	-0.016946038
47	0x3a496391	0.0007682378
48	0xbbefdd5c	-0.0073200893
49	0xbaa1eb43	-0.0012353439
50	0x389622fe	7.159075e-05
51	0xbce5977c	-0.028026335
52	0xbab3012c	-0.0013656965
53	0xbca35487	-0.019937767
54	0xbcd2e92b	-0.025745949
55	0xbd11687a	-0.035500027
56	0x3ca8bf3c	0.020599
57	0xbcb92c0b	-0.02260401
58	0xbd22fb8c	-0.039790675
59	0xbd2ad0b5	-0.041702945
60	0xbc03ef92	-0.0080527235
61	0xbd0b2625	-0.033971924
62	0xbc64b666	-0.013959503
63	0x3caafcd6	0.020872515
64	0xbcfa86ec	-0.030581914
65	0xbc250a2a	-0.010073224
66	0xbbfd9a17	-0.007739316
67	0x3d071c81	0.032986168
68	0xbd63fb2c	-0.055659458
69	0x3c06fe6f	0.008239373
70	0x3bb26de6	0.00544523
71	0xbc31f5eb	-0.010861854
72	0xbcc4b7f2	-0.024013493
73	0x3b5f348b	0.0034058418
74	0xbc12ea9e	-0.00896707
75	0xbd0d11a3	-0.034440648
76	0x3c8dd3b9	0.017312871
77	0xbccb6b3d	-0.024831409
78	0xbbd9c2ce	-0.006645537
79	0xbd6ffa82	-0.058588512
80	0xbd833ee7	-0.06408482
81	0x3bd637e5	0.006537425
82	0xbd369933	-0.044579696
83	0x3bbac9d2	0.0057003284
84	0xbc925aef	-0.017865626
85	0xbce042f6	-0.02737568
86	0xbcdc7f38	-0.026916131
87	0xbd188850	-0.037239373
88	0x3c1149c8	0.0088676885
89	0x3ccdfb32	0.025144193
90	0xbd669ef8	-0.05630395
91	0xbcb4d0b4	-0.022072174
92	0xbbfd6ca5	-0.0077338987
93	0xbd1e9acf	-0.038721856
94	0xbd147e0e	-0.036253028
95	0x3cf1a496	0.029497426
96	0xbba2565f	-0.004954144
97	0xbd8edf6b	-0.06976207
98	0x3b0b7a0a	0.0021282458
99	0xbd446c96	-0.047955118
100	0x3c271afc	0.010199305
101	0x3ce06101	0.027390005
102	0xbb6ec85a	-0.0036435337
103	0xbcc44797	-0.023959918
104	0xbaa88415	-0.0012856746
105	0xbafdd6c2	-0.0019366371
106	0xb88f5f04	-6.8364694e-05
107	0xbcdde762	-0.027087871
108	0xbce81ef7	-0.028335078
109	0xbd1393aa	-0.036029495
110	0xbcd37a1e	-0.025815066
111	0x3c08f76b	0.00835977
112	0xbcacec32	-0.02110872
113	0xbcb015d3	-0.021494782
114	0xbc1c67e8	-0.009546258
115	0xbc9d1759	-0.019176172
116	0xbc2cf8e9	-0.010557392
117	0x3b57bec4	0.0032920102
118	0xbcf847fa	-0.030307759
119	0xbd2c066a	-0.041998304
120	0xbcf8d32c	-0.030374132
121	0xbd2922db	-0.041293006
122	0xbd11f488	-0.035633594
123	0x3be6e207	0.0070459875
124	0xbc6b1bc2	-0.01434988
125	0xbd0516d2	-0.032492466
126	0xbc5d538e	-0.0135086905
127	0x3c80c981	0.015721085
128	0xbbc2c544	-0.005943926
129	0xbc3f8f79	-0.011691921
130	0xbcad56e8	-0.021159604
131	0x3c4cd933	0.012502956
132	0xbc3c9394	-0.011509795
133	0x3c87a980	0.016560316
134	0x3c79476f	0.015214785
135	0xbc4219da	-0.011846984
136	0xbd156c0c	-0.036479995
137	0x3c7a75f2	0.015286909
138	0xbcfc41a8	-0.030793026
139	0x3ca26ab5	0.019826273
140	0xbb67ccec	-0.0035369946
141	0xbd8b51cb	-0.0680271
142	0x3d157516	0.036488615
143	0xbcec085c	-0.02881258
144	0xba2bd532	-0.0006554901
145	0xbd3462db	-0.04403959
146	0xbd2fc4c5	-0.042912263
147	0xbce55060	-0.027992427
148	0xbca0b719	-0.019618558
149	0x3b0472f3	0.0020210117
150	0xbb8adb0a	-0.0042375373
151	0xbbd7b87e	-0.0065832725
152	0x3c7a5894	0.015279908
153	0xbcfa5c73	-0.030561661
154	0x3c7da6f7	0.015481702
155	0xbd46dc02	-0.04854966
156	0xbc86434b	-0.01638951
157	0xbd34afe5	-0.04411306
158	0xbd5e172f	-0.05422133
159	0x3abdd2de	0.0014482399
160	0xbcc4151f	-0.023935853
161	0xbd676cca	-0.056500234
162	0x3c1bdca2	0.009513052
163	0x3cdb6ecd	0.026786232
164	0x3acf174c	0.001579979
165	0x3c557d95	0.013030429
166	0xbd2357ee	-0.03987878
167	0x3acda176	0.0015688378
168	0x3a3d83a4	0.0007229394
169	0x3916e73a	0.00014391253
170	0xbce67eb8	-0.028136596
171	0xbd21f334	-0.039538577
172	0x3c9da215	0.019242326
173	0xbd23f649	-0.040029798
174	0xbd54723e	-0.051866762
175	0x3bc75823	0.0060835048
176	0x3c7ccdd6	0.0154299345
177	0xbcb9de26	-0.022688936
178	0xb9ee07aa	-0.00045400608
179	0xbd247fb4	-0.04016085
180	0x3c9a3032	0.01882181
181	0xbcd34901	-0.025791647
182	0x3a6a0cd0	0.0008928301
183	0xbc7b7cda	-0.015349591
184	0xbd0aea16	-0.033914648
185	0xbc4a4a71	-0.01234685
186	0xbca12d82	-0.01967502
187	0xbd118f83	-0.035537254
188	0xbca6520d	-0.020302797
189	0x3b146892	0.0022645337
190	0x3bb350aa	0.0054722624
191	0xbbae57a0	-0.0053205043
192	0xbd13c5b7	-0.036077227
193	0xbbf27821	-0.0073995744
194	0xbd4465f1	-0.04794878
195	0xbd218c1e	-0.039440267
196	0xbca9ec6d	-0.02074262
197	0x3b600cab	0.0034187238
198	0xba85eaa3	-0.0010217022
199	0xbb92c5e7	-0.004479158
200	0xbc32186c	-0.01087008
201	0xbcb5ccc7	-0.022192372
202	0x3c394302	0.01130748
203	0xbc0f72d1	-0.008755402
204	0xbc036ff3	-0.008022296
205	0xbd2e51bd	-0.04255842
206	0xbc9788fd	-0.018497938
207	0xbd2eefd8	-0.0427092
208	0xbcdc30f2	-0.026878808
209	0x3ba3048c	0.0049749073
210	0x389ed19c	7.57307e-05
211	0xbd16a766	-0.036780737
212	0xbd2b1d92	-0.041776247
213	0x3bd13dc5	0.0063855373
214	0x3c92f821	0.017940583
215	0x3d0ad6e8	0.033896357
216	0xbc0cebce	-0.008601142
217	0x3c566884	0.013086442
218	0xbd51b200	-0.051195145
219	0x3b33068c	0.0027317135
220	0xbd06df76	-0.032927953
221	0x3ba1d298	0.004938435
222	0x3d2286dc	0.039679393
223	0xbd513206	-0.051073097
224	0xbcc0390d	-0.023464704
225	0xbd036f87	-0.032088783
226	0xbbd70009	-0.0065612835
227	0x3d06e568	0.032933623
228	0xbcfd3e9b	-0.030913642
229	0x3bf2ceca	0.007409905
230	0x3ccaaf29	0.024741726
231	0xbd2012e3	-0.03908051
232	0xbba7f839	-0.005126026
233	0x3b0aaaca	0.0021158927
234	0x3cc8b782	0.024501566
235	0xbcf7728d	-0.03020599
236	0xbc48a170	-0.012245521
237	0xbcaf64c0	-0.021410346
238	0xbc6968a2	-0.014246138
239	0xba2715a1	-0.00063737674
240	0xbcd87ed3	-0.026427662
241	0xbd128449	-0.03577069
242	0xbc54e689	-0.012994417
243	0xbd13dfb2	-0.036102004
244	0x3c857012	0.01628879
245	0x3c59fcd7	0.013304911
246	0xbc85de0d	-0.016341234
247	0xbd894572	-0.06702699
248	0xbd37d4b4	-0.044880584
249	0xbcab5169	-0.020912843
250	0xbcc4ca42	-0.024022225
251	0xb9abdffe	-0.0003278255
252	0xbcd3a8ab	-0.025837263
253	0xbb678b8c	-0.003533098
254	0x3ca51eeb	0.020156344
255	0xbca7505c	-0.02042406

net.2.weight f4 [128, 256]
0	0xba28c8bc	-0.0006438603
1	0x3d7a4bb7	0.061107364
2	0x3c14e5b7	0.009087971
3	0x3d2fc478	0.042911977
4	0x3bd33870	0.006445937
5	0xbc9b3e6b	-0.018950662
6	0x3d86e46d	0.065865375
7	0x3dc2690e	0.09492694
8	0x3e878a1d	0.2647256
9	0x3c8aa564	0.016924568
10	0xbd9852ee	-0.074376926
11	0xbda4d79e	-0.08048938
12	0x3da08051	0.078369744
13	0xbddd86c3	-0.108167194
14	0x3e45fb3c	0.1933412
15	0x3d0f3c72	0.034969755
16	0xbd6701fe	-0.056398384
17	0xbe1502f3	-0.14551906
18	0x38fb69ec	0.00011988342
19	0x3e06daaa	0.13169351
20	0xbbf70a9a	-0.0075391056
21	0x3e27cf4b	0.1638767
22	0x3e2f5c9c	0.17125171
23	0xbd3aa427	-0.045566704
24	0xbca5f981	-0.020260574
25	0x3d513a88	0.05108121
26	0x3d8ee554	0.069773346
27	0x3d0aa8c7	0.033852365
28	0xbda3ab08	-0.07991606
29	0xbdf8401b	-0.12121602
30	0x3d3ec731	0.046576682
31	0x3e9c9f17	0.30590126
32	0x3daf723b	0.085667096
33	0xbc88a902	-0.016682152
34	0x3d5d75e7	0.05406752
35	0xbba86a99	-0.0051396606
36	0x3d845a97	0.06462591
37	0xbd7dc9ae	-0.061959915
38	0x3c2c2c0c	0.0105085485
39	0xbe02c323	-0.12769751
40	0x3ca7abf3	0.020467734
41	0x3da99dd2	0.08282055
42	0x3e1741c3	0.1477118
43	0xbc8181c6	-0.015808951
44	0xbc925702	-0.017863754
45	0xbbf9385f	-0.007605597
46	0x3cfa3a90	0.030545503
47	0x3d80e78f	0.06294166
48	0xbcaaf86d	-0.020870412
49	0xbc61af55	-0.013774713
50	0x3e1986b7	0.14992796
51	0x3db1033d	0.08643196
52	0xbd6a8adb	-0.05726133
53	0xbdad215d	-0.08453629
54	0x3d3b5e5c	0.045744285
55	0x3c57424d	0.013138366
56	0x3d9aab4b	0.07552203
57	0x3bcf3d03	0.006324412
58	0xbcb8fd1d	-0.022581631
59	0xbe258d89	-0.16167273
60	0x3dfdd306	0.12393765
61	0xbccfeeab	-0.02538236
62	0x3db64cff	0.089014046
63	0x3d92ed7f	0.07174205
64	0x3cd252b9	0.02567421
65	0xbdb0834a	-0.086187914
66	0x3c3b78fd	0.01144242
67	0xbdaff232	-0.08591117
68	0xbd0be348	-0.0341523
69	0x3d3c787e	0.046013348
70	0xbdaffc16	-0.085930035
71	0x3d2f1e3a	0.042753436
72	0x3dd4ae5c	0.10384819
73	0x3dd1a7ce	0.10237084
74	0xbce062e6	-0.027390908
75	0xbd223d82	-0.03960944
76	0xbca26299	-0.019822406
77	0xbe0a391d	-0.1349835
78	0xbc052c14	-0.008128185
79	0x3df05cde	0.11736463
80	0x3e3a2cc9	0.18181147
81	0x3d04872b	0.03235547
82	0x3a9475ac	0.0011326573
83	0xbbc7c3a8	-0.006096322
84	0xbd9eff21	-0.07763506
85	0x3d93bb81	0.07213498
86	0x3d099468	0.033588797
87	0xbd6976f3	-0.056998204
88	0xbdd811d3	-0.10550275
89	0x3d4b1092	0.04957635
90	0xbe439035	-0.1909798
91	0xbb62d74d	-0.0034613193
92	0x3cab1de0	0.020888269
93	0xbcff92fe	-0.031198021
94	0x3d64b67e	0.0558381
95	0xbe3ff81c	-0.1874699
96	0x3d576d74	0.052594617
97	0x3bf62269	0.007511426
98	0x3c6b369e	0.0143562835
99	0xbdce1d8b	-0.100642286
100	0x3d098459	0.033573482
101	0xbe1faec3	-0.1559401
102	0x3d2cf603	0.042226803
103	0x3e33a679	0.17543973
104	0xbd5fafcf	-0.054611024
105	0xbcb2b875	-0.021816472
106	0x3dc3c03d	0.09558151
107	0xbdb712b2	-0.08939113
108	0x3da86477	0.08222287
109	0x3d8816ea	0.066449955
110	0x3caa6a21	0.02080256
111	0x3d901018	0.0703432
112	0xbb9bdc7d	-0.004756509
113	0x3bc785cc	0.006088948
114	0x3dd7b7b8	0.105330884
115	0x3bcad745	0.006190213
116	0xbcb6cb62	-0.022313777
117	0x3de0f663	0.109844945
118	0xbd346312	-0.044039793
119	0x3d69eac4	0.057108656
120	0xbd710bff	-0.05884933
121	0x3ae85359	0.0017725035
122	0xbd04ad46	-0.03239181
123	0x3c07b832	0.008283662
124	0x3bdf2c02	0.006810666
125	0xbcaf7d82	-0.021422151
126	0x3d07914f	0.03309756
127	0xbdf6f7ba	-0.12058969
128	0x3dfc0f27	0.123075776
129	0xbdc0c97c	-0.0941343
130	0x3dd952de	0.10611509
131	0x3e5726de	0.2101092
132	0x3dd50e34	0.104031
133	0xb8a939c1	-8.0693055e-05
134	0xbc1ae38e	-0.009453667
135	0x3da2ef82	0.07955839
136	0x3dbd0f43	0.092314266
137	0x3db09ff7	0.08624261
138	0xbdc79220	-0.09744668
139	0x3d0cab4b	0.034343045
140	0xbd82b7a5	-0.06382684
141	0x3d3b6b9e	0.04575693
142	0x3d772df9	0.060346577
143	0xbe24cd04	-0.16093832
144	0x3d8d1cdd	0.06890271
145	0x3ca5ca0b	0.020237943
146	0xbd7761bb	-0.060395937
147	0x3d943f1e	0.07238601
148	0xbd2c52ef	-0.04207128
149	0xbdfdf8f2	-0.12400998
150	0xbb62dc19	-0.0034616052
151	0x3dacc7c6	0.08436541
152	0xbdc55734	-0.09635773
153	0x3e0c9093	0.13727026
154	0xbdc0b829	-0.09410126
155	0xbe02b442	-0.12764075
156	0xbd930ab6	-0.07179777
157	0x3dcaf260	0.099095106
158	0xbd02daec	-0.03194706
159	0xbdb719f9	-0.08940501
160	0x3d862354	0.06549707
161	0xbe0fd3eb	-0.14045684
162	0x3d7fa442	0.062412508
163	0xbcfb14ab	-0.030649504
164	0xbdc19d22	-0.09453799
165	0x3d80336f	0.0625981
166	0x3dd2fb3b	0.10301825
167	0xbc436b32	-0.011927413
168	0xbd27472a	-0.04083935
169	0x3c857ee1	0.016295852
170	0xbd7b0754	-0.061286286
171	0xbda0763b	-0.07835051
172	0xbccfa3e4	-0.025346704
173	0x3c3077d5	0.010770758
174	0xbc7648a1	-0.0150319645
175	0xbc851e38	-0.016249761
176	0xbca80d0e	-0.020514037
177	0x3de88bf7	0.11354821
178	0x3d8ed6e6	0.069745824
179	0xbd4a0030	-0.049316585
180	0xbc9786f9	-0.018496977
181	0x3d027223	0.03184713
182	0x3a286b3a	0.00064246694
183	0x3d621466	0.055195235
184	0x3da0b03f	0.07846116
185	0xbbca11b1	-0.0061666598
186	0xbda28254	-0.07935014
187	0xbd486444	-0.048923746
188	0xbd69401b	-0.0569459
189	0x3d8194b4	0.06327191
190	0x3a768f54	0.0009405513
191	0x3db4d455	0.088295616
192	0xbdded256	-0.10879962
193	0x3ca5842c	0.020204626
194	0xbc0cb29e	-0.0085875075
195	0x3d0bc57d	0.034123886
196	0xbda4ecab	-0.08052953
197	0x3e50fbc1	0.20408536
198	0x3df9c41f	0.1219561
199	0x3d52306d	0.051315714
200	0x3e1c92c7	0.15290366
201	0xbd3cc825	-0.04608931
202	0xbc9d4c64	-0.019201465
203	0x3dc2b408	0.095069945
204	0xbdd0fb7d	-0.102042176
205	0x3cb35f61	0.021896066
206	0x3cf2e218	0.029648826
207	0x3d17b29d	0.037035573
208	0x3d41c716	0.047309004
209	0x3d0e0182	0.034669407
210	0xbe05512e	-0.13019249
211	0xbc590050	-0.013244703
212	0xbccbdb6a	-0.024884898
213	0xbb2e9b87	-0.0026642994
214	0xbae965d1	-0.0017806833
215	0x3d924620	0.071422815
216	0xbe2cb0ac	-0.1686427
217	0x3c782387	0.015145189
218	0x3e0155d3	0.12630396
219	0x3ce88653	0.028384363
220	0x3de4b088	0.11166483
221	0x3c979533	0.01850376
222	0xbddd2118	-0.10797328
223	0xbca9ecde	-0.02074283
224	0xbd884547	-0.066538386
225	0x3d41b3d2	0.04729063
226	0xbbb68eda	-0.0055712285
227	0xbe06834b	-0.13136022
228	0xb9c90d86	-0.00038347783
229	0xbcdf380d	-0.027248407
230	0x3e1cf548	0.15327942
231	0x3d39bf4e	0.045348458
232	0xbd8331dd	-0.06405995
233	0x3d0f2856	0.034950577
234	0xbe49a0a3	-0.19690184
235	0x3d53b91a	0.0516902
236	0x3de1af1d	0.11019728
237	0xbd754ba2	-0.059886582
238	0x3d01d6b0	0.031698883
239	0x3d4843f0	0.048892915
240	0x3d9ea87c	0.077469796
241	0xbd41e2e8	-0.047335535
242	0xbb3a735b	-0.0028450105
243	0x3db7bc66	0.08971481
244	0xbd044125	-0.03228869
245	0xbd965e03	-0.0734215
246	0x3c897732	0.01678047
247	0x3c87adda	0.016562391
248	0xbb382403	-0.0028097637
249	0xbd62ca18	-0.055368513
250	0xbd0ef66e	-0.034902982
251	0xbd86c5c9	-0.06580693
252	0x3c590e0c	0.013247978
253	0xbc82309c	-0.01589232
254	0xbc3b63d8	-0.011437379
255	0x3e05c2f7	0.13062654

net.2.bias f4 [128]
0	0x3e0b764a	0.13619342
1	0xbdb01f79	-0.08599753
2	0xbe001fa8	-0.12512076
3	0x3d9718b1	0.073777564
4	0xbd838975	-0.06422702
5	0x3db4b863	0.088242315
6	0x3dd60b5e	0.10451387
7	0xbb9c8533	-0.004776621
8	0x3dc6d0e8	0.097078145
9	0xbd6217c2	-0.05519844
10	0x3cf1667d	0.029467816
11	0xbca5095a	-0.02014606
12	0xbc800395	-0.015626708
13	0xbd6c5035	-0.05769368
14	0xbd21637b	-0.039401513
15	0x3d91be0f	0.07116329
16	0x3be7b2de	0.007070883
17	0xbb8937ed	-0.004187575
18	0xbd8ec7a6	-0.06971674
19	0x3d87fa3f	0.066395275
20	0x3da16e38	0.07882351
21	0xbdf090ee	-0.11746393
22	0x3cf1230c	0.029435657
23	0xbbda5c5b	-0.0066638417
24	0xbb336e33	-0.0027378916
25	0x3e2191d1	0.15778281
26	0x3cd38fac	0.025825344
27	0xbdcb7131	-0.09933699
28	0x3bd6adec	0.006551495
29	0xbda15083	-0.078766845
30	0x3cc10d32	0.023565862
31	0x3dbd7a5e	0.09251855
32	0x3bd74325	0.0065692835
33	0xbdb7f8c1	-0.08982993
34	0xbd7c3a77	-0.061579194
35	0xbd996cfb	-0.074914895
36	0x3bfa5f6a	0.007640769
37	0x3dd197b9	0.10234017
38	0xbc0693c0	-0.008213937
39	0xbb456e6c	-0.003012563
40	0xbbb9c90b	-0.005669718
41	0xbd8501e2	-0.064945
42	0xbda09eee	-0.078428134
43	0x3dd50523	0.104013704
44	0x3b5dfd14	0.003387277
45	0x3dd73a81	0.105092056
46	0x3cda276d	0.026630128
47	0xbc3b0b6c	-0.011416297
48	0xbd2bc031	-0.041931335
49	0x3ddcf8d6	0.10789649
50	0xbe0ddf3a	-0.13854685
51	0x3d83c1a7	0.06433421
52	0x3e01f8ea	0.1269261
53	0x3d58f8d8	0.05297169
54	0x3c893db4	0.016753055
55	0x3d878a54	0.06618181
56	0x3dcb7208	0.09933859
57	0xbd99c84d	-0.075089075
58	0xbd7d3331	-0.061816398
59	0xbe1e4e31	-0.15459515
60	0x3bfbf336	0.007688905
61	0xbc98c922	-0.018650595
62	0xbc9a766e	-0.0188553
63	0x3cfcd2dc	0.030862264
64	0x3d89a26a	0.06720431
65	0x3badbc91	0.00530202
66	0xbc1e2b6c	-0.009653907
67	0x3df2f162	0.11862446
68	0x3dd4b17b	0.10385414
69	0x3d5e1162	0.054215796
70	0xbc5b4a11	-0.013384358
71	0xbcbe688a	-0.023243207
72	0x3dc0cdee	0.09414278
73	0x3cb393f5	0.021921137
74	0x3d1292f9	0.035784695
75	0xbd026b7c	-0.031840786
76	0xbd29c466	-0.041447066
77	0x3d5e260a	0.054235496
78	0xbde883d4	-0.11353269
79	0x3cb8322a	0.022484858
80	0xbd68ff42	-0.056884058
81	0xbd90894a	-0.07057436
82	0x3dcb34d7	0.09922188
83	0xbd06d707	-0.03291991
84	0xbdeec825	-0.11659268
85	0xbd6f9902	-0.05849553
86	0x3d7ff036	0.062484942
87	0x3dd18176	0.10229771
88	0xbb688fc6	-0.0035486086
89	0x3d1f2ca0	0.038860917
90	0xbddc384d	-0.10752926
91	0x3d11c277	0.035585847
92	0xbce16043	-0.027511721
93	0x3d881099	0.06643791
94	0x3a94b2b4	0.0011344762
95	0x3db05c05	0.08611301
96	0xbdd897c5	-0.10575823
97	0xbc71ddb2	-0.014762329
98	0x3d45249c	0.048130617
99	0x3b01e1de	0.0019818465
100	0xbd41fa0d	-0.047357608
101	0xbc103797	-0.008802316
102	0x3c430787	0.01190365
103	0xbda73215	-0.08163849
104	0xbdbf5074	-0.09341517
105	0x3d89c45b	0.06726905
106	0x3df94804	0.12171939
107	0xbd8cd1b1	-0.06875933
108	0x3cf259f1	0.029583903
109	0xbd57217b	-0.052522164
110	0xbd85ae04	-0.065273315
111	0xbd2bd9de	-0.04195582
112	0x3c7fff0e	0.015624775
113	0x3d81a9f7	0.06331246
114	0x3da12f42	0.07870342
115	0xbd85190a	-0.064989164
116	0x3ccdf7b2	0.025142524
117	0xbded5250	-0.115879655
118	0x3e38a19f	0.18030404
119	0x3c88f44e	0.016718056
120	0xbd41ffa7	-0.04736295
121	0x3d49e8cf	0.04929429
122	0x3e017260	0.12641287
123	0xbd2f0d4f	-0.0427373
124	0x3d7ade87	0.061247375
125	0xbd35e1a7	-0.044404652
126	0x3d6b0670	0.057379186
127	0xbde3ce2a	-0.11123307

net.4.weight f4 [10, 128]
0	0xbe24925f	-0.16071461
1	0xbb34363e	-0.0027498151
2	0x3daf1f30	0.085508704
3	0x3daf7a1a	0.08568211
4	0xbcf0be54	-0.02938763
5	0xbd560a1f	-0.052255746
6	0xbe227729	-0.15865768
7	0xbe236675	-0.15957053
8	0xbe359f4c	-0.17736548
9	0xbdc84dfe	-0.09780501
10	0x3d8fcea3	0.07021835
11	0xbc2991cf	-0.010349705
12	0x3e333fae	0.1750476
13	0x3dc71c55	0.09722201
14	0xbe6ac0a1	-0.22925045
15	0xbd414e2c	-0.04719369
16	0xbdd18008	-0.10229498
17	0x3b049993	0.002023314
18	0xbd5a1511	-0.053242747
19	0xbd06773b	-0.03282855
20	0x3db9dad3	0.090749405
21	0x3cb97f80	0.022643805
22	0x3dbf2b1d	0.09334395
23	0x3d30f3b9	0.043201182
24	0xbcd7dd29	-0.026350575
25	0x3d622c34	0.055217937
26	0xbcf1444f	-0.029451517
27	0xbd835523	-0.06412723
28	0xbe5a71c0	-0.21332455
29	0xbe17a3a9	-0.14808525
30	0x3d2b2fe6	0.041793726
31	0x3d0637c3	0.032768022
32	0xbd8f0c7b	-0.06984802
33	0xbe20c78c	-0.15701121
34	0x3de3bd79	0.111201234
35	0xbe2bfe05	-0.1679612
36	0x3da7522a	0.081699684
37	0xbe403186	-0.18768892
38	0xbd76c27d	-0.060244072
39	0x3b59c8ae	0.0033231187
40	0xba5ff2c4	-0.000854295
41	0xb9e354fc	-0.00043360132
42	0xbe4445d1	-0.19167258
43	0x3dc22c83	0.09481146
44	0x3e0331e2	0.12811998
45	0xbd6b2222	-0.0574056
46	0xbd530fa6	-0.051528595
47	0xbd1d526e	-0.03840869
48	0x3d767c47	0.060177114
49	0xbcf2c220	-0.029633582
50	0xbb9da7e7	-0.0048112753
51	0xbdb73660	-0.08945918
52	0xbdd73db4	-0.10509816
53	0x3ddcf885	0.10789589
54	0x3d85e41e	0.065376505
55	0xbdfc5035	-0.12319986
56	0xbde6e8d1	-0.11274875
57	0x3db38db9	0.08767266
58	0x3d99b828	0.07505828
59	0x3d8c0884	0.06837562
60	0xbbf520cf	-0.0074807177
61	0xbd79ca4a	-0.060983934
62	0xbd5cb2b0	-0.053881347
63	0x3de621c0	0.11236906
64	0xbe14b3c1	-0.14521696
65	0x3dbf28f8	0.09333986
66	0x3db791de	0.08963369
67	0x3c9170ca	0.017753977
68	0xbe64da86	-0.22348985
69	0x3d00ffd0	0.03149396
70	0xbde1e8db	-0.11030742
71	0xbd0c66c0	-0.034277678
72	0xbcae83a1	-0.021303
73	0xbde7c7d3	-0.1131741
74	0x3da17bb9	0.07884926
75	0xbd329d89	-0.04360727
76	0xbd4d659a	-0.050145723
77	0xbbdc9584	-0.006731691
78	0xbd5d591c	-0.05404006
79	0x3d8f56d2	0.069989815
80	0xbd9a8b75	-0.075461306
81	0xb886c85e	-6.426939e-05
82	0x3cba121d	0.022713715
83	0xbe21af12	-0.1578944
84	0x3c936502	0.0179925
85	0xbd14f622	-0.036367543
86	0x3c968236	0.018372636
87	0x3d89d6b9	0.06730408
88	0xbe30052e	-0.17189476
89	0xbd91f6e9	-0.071271725
90	0x3d6cc9ea	0.057809748
91	0x3dd6f67e	0.104962334
92	0xbe6c4371	-0.23072602
93	0x3c45b499	0.012066984
94	0xbd3b7c08	-0.045772582
95	0xbccaec67	-0.024770929
96	0xbdb5c474	-0.08875361
97	0x3b1db85a	0.002406618
98	0x3d868f26	0.06570272
99	0xbe0d3f5c	-0.13793701
100	0x3c2d6ad5	0.010584553
101	0x3c4f0dc6	0.012637561
102	0x3d72069c	0.059088334
103	0xbd94659c	-0.07245943
104	0xbd4fe716	-0.05075749
105	0xbd64bdcf	-0.055845078
106	0xbe330042	-0.17480567
107	0x3d8094a0	0.06278348
108	0x3cc7efae	0.02440628
109	0x3e407988	0.1879636
110	0xbda04235	-0.07825128
111	0xbe13a2d5	-0.14417584
112	0x3e153ac5	0.145732
113	0x3d81c7e1	0.06336952
114	0xbe30c602	-0.17263034
115	0xbd911401	-0.070838936
116	0x3d503d9c	0.050840005
117	0x3b9ed0c7	0.0048466655
118	0x3dd64e5b	0.10464164
119	0xbd0f4bde	-0.034984462
120	0xbb2b76b3	-0.002616328
121	0xbde922c2	-0.11383583
122	0xbd5ce6ef	-0.053931173
123	0xbda68143	-0.081301235
124	0xbe5ca77c	-0.21548265
125	0xbd1054b7	-0.03523704
126	0x3db79c88	0.08965403
127	0x3c8d02b0	0.017213196
128	0xbd81b3ce	-0.06333123
129	0xbddfbe49	-0.10924966
130	0xbef1359d	-0.47111216
131	0xbd30f719	-0.0432044
132	0xbdec37f5	-0.115341105
133	0x3d94ec7e	0.0727167
134	0x3d99d89f	0.0751202
135	0x3da87107	0.08224683
136	0x3da69799	0.08134384
137	0x3d7cc417	0.061710443
138	0xbd90b8a2	-0.07066466
139	0xbdb0cfe3	-0.08633401
140	0xbd847948	-0.06468445
141	0xbe50225a	-0.20325604
142	0x3e07ec1f	0.13273667
143	0x3cfa4ab5	0.030553201
144	0xbc3d1b2a	-0.011542121
145	0xbe14ba4f	-0.14524196
146	0xbd7959bb	-0.06087659
147	0xbd6113bf	-0.054950472
148	0xbe110a6a	-0.14164129
149	0x3dd4f2e6	0.10397892
150	0xbdd4f8fb	-0.10399052
151	0xbe5d693c	-0.21622175
152	0xbdee71dc	-0.11642811
153	0xbdf122f5	-0.11774246
154	0xbda6f3c9	-0.08151967
155	0xbc7d1341	-0.015446485
156	0xbe27a3b4	-0.16371042
157	0x3e0e576e	0.1390054
158	0x3c3c365e	0.0114875715
159	0xbdfdc28c	-0.123906225
160	0xbdecc568	-0.1156109
161	0x3df855da	0.1212575
162	0x3d831f2c	0.0640243
163	0xbe0a19ad	-0.13486357
164	0xbe1b867e	-0.15188023
165	0x3d70a5cb	0.058751862
166	0x3cab608f	0.020920066
167	0xbe1b3f49	-0.1516086
168	0xbc31f2fb	-0.010861154
169	0x3e0f2f48	0.1398288
170	0x3d3c6b05	0.0460005
171	0x3d81578b	0.063155256
172	0x3db0dfe8	0.08636457
173	0x3d69bf6e	0.057067327
174	0x3d4a8f46	0.049453042
175	0x3d9f02c1	0.07764197
176	0xbd2f024d	-0.042726804
177	0x3d821995	0.06352536
178	0xbdf8b432	-0.121437445
179	0x3df07482	0.11740972
180	0xbc4f6327	-0.012657917
181	0xbd2ba5fb	-0.04190634
182	0xbe30894c	-0.17239875
183	0x3d0cbe5a	0.03436122
184	0xbcb3b5a0	-0.021937191
185	0x3dc18ba5	0.09450463
186	0xbdda0479	-0.10645384
187	0x3d86a6c9	0.065747805
188	0xbcfb0755	-0.030643145
189	0xbdfe22e7	-0.12409001
190	0x3d2f46a6	0.042791985
191	0xbe050190	-0.12988877
192	0xbe0b6e37	-0.13616262
193	0xbe069647	-0.13143264
194	0xbc9b3bc8	-0.018949404
195	0xbe3cdc1e	-0.18443343
196	0x3cc98b4a	0.024602551
197	0xbd82c9e8	-0.06386167
198	0x3d96393e	0.07335137
199	0x3d11ee58	0.035627693
200	0x3ca3b186	0.01998211
201	0xbdf4dfab	-0.11956724
202	0xbd323531	-0.04350776
203	0x3cec9af6	0.028882485
204	0xbd9f0886	-0.077652976
205	0xbc8fc2a2	-0.017548863
206	0x3d87b857	0.06626957
207	0x3d34cc6c	0.044140264
208	0x3dc2b0be	0.09506367
209	0xbde416f6	-0.11137192
210	0x3d4707f3	0.048591565
211	0x3b52e787	0.0032181458
212	0xbe18f60c	-0.1493761
213	0x3d8e4602	0.06946947
214	0xbe42116a	-0.18951955
215	0xbdf9c11d	-0.121950366
216	0xbe192e38	-0.14959037
217	0xbca4b4e2	-0.020105783
218	0x3ca015e0	0.01954168
219	0xbe11ba71	-0.14231278
220	0x3d9cf9b2	0.07664813
221	0xbc8fe278	-0.017564043
222	0x3c3e6149	0.011619874
223	0xbdc99c44	-0.098442584
224	0xbce25e78	-0.027632937
225	0xbd88feff	-0.06689262
226	0xbd2c7a6f	-0.04210895
227	0xbd72b18c	-0.059251353
228	0x3e0cbf0d	0.13744755
229	0x3d9ceda7	0.07662516
230	0xbd817c61	-0.063225515
231	0x3c28cff2	0.010303484
232	0xbd13eb94	-0.036113337
233	0xbdf748ca	-0.1207443
234	0x3d2a6eee	0.041609697
235	0x3cd9a367	0.026567174
236	0xbdbf3d58	-0.09337872
237	0xbc5f4e8d	-0.013629568
238	0x3d05ff63	0.03271426
239	0x3dfbe5e6	0.12299709
240	0x3e4be046	0.19909772
241	0xbdb65445	-0.08902792
242	0xbd6b04ab	-0.0573775
243	0xbd414d9f	-0.047193166
244	0xbc29da16	-0.010366937
245	0xbd5fc737	-0.054633345
246	0xbe11d3e0	-0.1424098
247	0x3d963a95	0.073353924
248	0x3d90a2a3	0.070622705
249	0xbc656c2f	-0.014002844
250	0x3d6c5269	0.05769578
251	0x3db16248	0.08661324
252	0xbbc22fc8	-0.005926106
253	0xbbed8182	-0.0072481045
254	0x3d87e06b	0.06634601
255	0x3e3d05a2	0.1845918

net.4.bias f4 [10]
0	0x3c2f5bbd	0.010703024
1	0xbe0c43bc	-0.13697714
2	0xbdefd06b	-0.117096744
3	0x3d1f718c	0.038926646
4	0x3d533618	0.05156526
5	0xbe038fef	-0.12847875
6	0x3d0fecca	0.03513793
7	0xbdf1cef8	-0.11807054
8	0x3dbc692e	0.09199749
9	0xbcdd0ff8	-0.026985154
